app/src/main/ml/tf_lite_signLanguage_model.tflite (tflite, 380460 bytes, 10 tensors)

dense_3/bias f4 [24]
0	0x3dc7f3dc	0.09763309
1	0xbdbcf63f	-0.09226655
2	0xbc9b0c1d	-0.018926675
3	0x3cf5cb0f	0.030004052
4	0xbc410ba7	-0.011782563
5	0x3da4c6b1	0.0804571
6	0x3cd15cd9	0.025556969
7	0x3ca31b37	0.019910438
8	0xbd8e5cf4	-0.06951323
9	0xbc8352d2	-0.016030703
10	0xbd866185	-0.06561569
11	0x3d64c426	0.055851124
12	0x3bc1d7b5	0.005915607
13	0xbe709201	-0.23493196
14	0xbb97c1b2	-0.0046312446
15	0xbe5ce824	-0.2157293
16	0x3d3b3a95	0.045710165
17	0x3df3ded6	0.11907737
18	0x3de084de	0.109628424
19	0x3e3908d9	0.18069781
20	0xbccb7674	-0.024836756
21	0x3e1b9379	0.15192975
22	0xbdbcc14f	-0.09216558
23	0xbd973e60	-0.07384944

dense_2/bias f4 [64]
0	0xbc4673a6	-0.012112534
1	0xbc916709	-0.017749326
2	0x3d61875e	0.055060737
3	0x3c9986ca	0.01874103
4	0xbccb9a7f	-0.024853943
5	0xbcd0f128	-0.025505617
6	0xbc193025	-0.009349857
7	0xbc22ddf0	-0.009940609
8	0xbcb6b2f9	-0.022302138
9	0xbcbd5bf4	-0.023115136
10	0x3ce00e53	0.02735058
11	0x3d9e96d0	0.07743609
12	0xbc5ebca1	-0.013594777
13	0xbc191bbd	-0.009344992
14	0x3d4a5f70	0.049407423
15	0x3d24a3e5	0.040195365
16	0x3d10a3d3	0.035312485
17	0x3d18147c	0.03712891
18	0x3cbc1f6c	0.022964202
19	0x3d18a7f5	0.03726955
20	0xbc195f9c	-0.009361174
21	0xbd245916	-0.04012402
22	0x3d34e831	0.044166747
23	0x3be891e2	0.0070974687
24	0xbba3628b	-0.0049861125
25	0x3d3247a2	0.043525346
26	0xbcee089e	-0.029056843
27	0x3d011ef5	0.031523664
28	0xbc9ccc59	-0.01914041
29	0xbc4bdd3f	-0.012442886
30	0x3d310ea2	0.043226846
31	0xbcce1167	-0.025154782
32	0x3ce3476e	0.027744021
33	0xbd10f506	-0.035389923
34	0x3c3ec49b	0.011643554
35	0xbc42e581	-0.011895538
36	0xbc51eed7	-0.0128132915
37	0x3d11e8d2	0.035622425
38	0xbd534158	-0.05157599
39	0x3ca7eaec	0.020497762
40	0x3c1f596e	0.009725912
41	0x3be1ae5d	0.006887241
42	0xbc3c517f	-0.01149404
43	0xbc2caca6	-0.0105392095
44	0x3d2b8731	0.041876975
45	0xbc69205b	-0.014228906
46	0x3cea893c	0.028629892
47	0x3cb92286	0.02259947
48	0xbd071764	-0.03298129
49	0x3d83dbbe	0.06438397
50	0xbc515ee5	-0.012778972
51	0xbc289a3e	-0.01029068
52	0x3cd3d503	0.025858408
53	0x3da280eb	0.079347454
54	0x3d5b1f47	0.053496625
55	0x3b5e5e04	0.003393055
56	0xbcb96340	-0.022630334
57	0xbc045773	-0.00807749
58	0x3bac0d18	0.0052505843
59	0xbc050284	-0.008118276
60	0xbc614846	-0.0137501415
61	0x3ca0eeea	0.019645173
62	0x3c1f0497	0.009705684
63	0x3d45925a	0.048235275

conv2d_5/bias f4 [64]
0	0x3de81d2b	0.11333688
1	0xbbdbac35	-0.0067038783
2	0x3c5df37a	0.013546819
3	0x3d7b4b9f	0.061351415
4	0xbc529412	-0.0128526855
5	0xbcd53e17	-0.026030583
6	0x3d34b18d	0.044114638
7	0xbd0d5071	-0.034500543
8	0x3e076bdf	0.13224743
9	0xbbfd5db3	-0.007732117
10	0xbd00d33f	-0.03145146
11	0xbd2eca9b	-0.04267369
12	0x3d657394	0.056018427
13	0x3d6bb46a	0.057545103
14	0x3d76780f	0.06017309
15	0x3d1202fc	0.035647377
16	0x3dec35df	0.115337126
17	0xbb24ed1b	-0.002516574
18	0x3def6b17	0.11690348
19	0xba7df9da	-0.0009688415
20	0x3d0b4ae2	0.03400696
21	0x3d6eb736	0.058280192
22	0x3db00d5d	0.08596299
23	0x3cae2310	0.021256953
24	0xbbf68452	-0.007523098
25	0xbc6277a4	-0.01382247
26	0x3dc83785	0.097762145
27	0x3c76e5ff	0.015069484
28	0x3c89ab90	0.01680544
29	0x3cbfcf17	0.023414178
30	0xbc0dee96	-0.00866284
31	0x3c8adb67	0.016950322
32	0xbd5bcada	-0.05366025
33	0xbd5145fb	-0.05109213
34	0x3d1094c2	0.035298117
35	0xbc614c74	-0.013751138
36	0xbcbce27e	-0.023057219
37	0x3a80d219	0.0009828239
38	0xbc3e7255	-0.011623939
39	0x3c4c533f	0.012471019
40	0x3d9171d1	0.07101787
41	0xbcc5933e	-0.024118062
42	0xbd8c8390	-0.06861031
43	0xbc55277d	-0.013009903
44	0xbddc2231	-0.10748709
45	0x3da03e62	0.078243986
46	0xbca2e129	-0.019882755
47	0x3d5dab15	0.054118235
48	0x3cdeb33a	0.027185071
49	0xbc071af5	-0.008246173
50	0xbc3a3811	-0.011365906
51	0xba2d340d	-0.00066071824
52	0x3d648693	0.055792402
53	0xbce5d643	-0.02805627
54	0x3d2c038d	0.041995574
55	0xbbf3b911	-0.007437833
56	0xbc7d3153	-0.015453654
57	0xbd6d1707	-0.05788329
58	0x3d7da4bb	0.061924677
59	0xbbf71051	-0.007539787
60	0x3d823b9c	0.06359026
61	0x3c1c36c4	0.0095345415
62	0x3c9fd000	0.019508362
63	0xbb4dd237	-0.0031405815

conv2d_4/bias f4 [64]
0	0xbd6d2c21	-0.057903413
1	0xbcca3d21	-0.024687352
2	0x3d52fe2b	0.051511925
3	0xbdf25972	-0.118334666
4	0xbc718ad5	-0.014742573
5	0x3dd1952e	0.10233532
6	0x3e615128	0.22003615
7	0x3d235118	0.03987226
8	0x3d9a2f13	0.0752851
9	0xbc33b362	-0.010968061
10	0x3e93ffcd	0.28906098
11	0x3e16e6eb	0.14736526
12	0x3ad79a0b	0.0016449107
13	0x3c3ca405	0.011513715
14	0x3c87c796	0.016574662
15	0xbc13a6ba	-0.009011919
16	0xbe37bb5c	-0.17942566
17	0xbd0d0b5e	-0.03443467
18	0xbda353aa	-0.07974942
19	0x3dab334a	0.08359392
20	0x3e2ad2ea	0.1668202
21	0xbd218af8	-0.03943917
22	0x3e5dd10a	0.21661773
23	0x3bf5f46b	0.0075059435
24	0xbc35e0a7	-0.011100925
25	0x3e78cb4f	0.24296306
26	0xbe079996	-0.13242182
27	0x3db15b11	0.08659948
28	0x3d054970	0.03254074
29	0x3c5b3985	0.013380413
30	0xbde9bfff	-0.114135735
31	0xbe1bdef2	-0.15221766
32	0x3dc6760e	0.09690486
33	0xbc94bb4d	-0.018155718
34	0x3e16c186	0.14722261
35	0x3dde7f7e	0.10864161
36	0x3c3428b4	0.0109960325
37	0xbdba0873	-0.09083643
38	0x3e042b40	0.12907124
39	0x3c523964	0.012831066
40	0xbdb5a82b	-0.08869966
41	0xbdaf585f	-0.08561777
42	0x3c2577e6	0.010099387
43	0x3e4f83db	0.20265143
44	0x3de5ee40	0.11227083
45	0x3de46285	0.111516036
46	0xbdcb7dd1	-0.09936107
47	0xbb60c720	-0.0034298375
48	0x3e0911d4	0.13385707
49	0x3e6f9d18	0.2339977
50	0xbd15723a	-0.036485888
51	0x3e1e7d82	0.15477565
52	0xbdb1064e	-0.08643781
53	0xbde765ea	-0.112987354
54	0xbe46ed83	-0.19426541
55	0xbcd33d34	-0.02578602
56	0xbd8f06d3	-0.069837235
57	0xbdbd6dab	-0.09249433
58	0xbc9d5fe0	-0.019210756
59	0x3c98ddd0	0.018660456
60	0x3d50826d	0.050905634
61	0xbd6bb2b5	-0.057543475
62	0xbcfb725c	-0.03069418
63	0xbc863170	-0.016380996

conv2d_3/bias f4 [32]
0	0x3d113979	0.0354552
1	0x3ccff1f5	0.025383929
2	0x3e1b69c1	0.1517706
3	0x3c9d8e01	0.019232752
4	0x3c438f17	0.011935971
5	0xbc92a67c	-0.017901652
6	0x3d3c6294	0.04599245
7	0x3d0dec33	0.034649085
8	0x3d8fa3a7	0.07013636
9	0x3cd335c3	0.025782472
10	0x3d38e8c5	0.04514386
11	0x3de0dba1	0.10979391
12	0x3d54cbb8	0.051952094
13	0xbe6d0ae9	-0.23148693
14	0xbe88f74f	-0.2675118
15	0xbe65c84e	-0.22439691
16	0x3e22ccfe	0.15898511
17	0xbe58f25e	-0.21186206
18	0xbe19e2eb	-0.15027969
19	0xbe6abde2	-0.22923997
20	0xbe6e9b41	-0.23301412
21	0x3b90975b	0.004412574
22	0x3d852b47	0.06502395
23	0xbe628d87	-0.22124301
24	0x3cadf5af	0.021235315
25	0x3ceba51d	0.028765256
26	0xbc957393	-0.018243587
27	0x3d7984ea	0.060917772
28	0x3d1fb29c	0.038988695
29	0x3c090a87	0.008364326
30	0xbda89125	-0.08230809
31	0xb9647d7a	-0.00021790518

sequential_1/dense_2/MatMul f4 [64, 576]
0	0x3cfa0387	0.03051926
1	0x3cc86be6	0.024465512
2	0xbd467206	-0.048448585
3	0xbd32246f	-0.043491777
4	0xbdc370f1	-0.09543026
5	0xbc6ea419	-0.014565491
6	0x3d079e26	0.033109806
7	0xbcd94c6e	-0.026525702
8	0xbd58b768	-0.052909285
9	0xbc85b3a6	-0.016321015
10	0xbda9a454	-0.08283296
11	0x3d975beb	0.07390579
12	0x3d73856d	0.059453417
13	0xbdc7ddb0	-0.097590804
14	0xbdd6d389	-0.10489566
15	0x3d0ceb9e	0.03440439
16	0xbdbf1f67	-0.093321614
17	0xbd4037ab	-0.04692809
18	0x3b13cd20	0.0022552684
19	0x3d50ba77	0.050959077
20	0x3cfd6670	0.030932635
21	0xbbeba9af	-0.0071918587
22	0xbcf2d9fa	-0.029644955
23	0x3d7a18fc	0.061058983
24	0xbda4c740	-0.080458164
25	0x3d5f2097	0.05447444
26	0x3b8c3a9e	0.0042794487
27	0xbda32508	-0.079660475
28	0xbda1b76c	-0.07896313
29	0x3d2e6470	0.042576253
30	0xbc9b24fd	-0.018938536
31	0xbd37442d	-0.044742752
32	0xbd3f1904	-0.046654716
33	0xbd83c2cf	-0.06433641
34	0x3d235efc	0.039885506
35	0x3d4fbab7	0.050715175
36	0xbdc644d7	-0.09681099
37	0x3caaafc2	0.020835761
38	0x3cdcb761	0.02694291
39	0xbd2cd70f	-0.042197283
40	0xbdb9488b	-0.090470396
41	0xbab258d0	-0.001360679
42	0x3d907193	0.070529126
43	0x3d153120	0.036423802
44	0xbdbb76e2	-0.091535345
45	0xba3017c1	-0.0006717407
46	0x3dada232	0.08478202
47	0x3d943f54	0.072386414
48	0x3d2cda69	0.04220048
49	0xbd1377d8	-0.036002964
50	0xbd621dc2	-0.05520416
51	0x3d8411b8	0.06448692
52	0xbcb7d145	-0.022438655
53	0xbd92e66b	-0.07172855
54	0x3d3582be	0.04431414
55	0x3d6ad146	0.057328485
56	0xbd9fc7d8	-0.07801789
57	0x3cbcbc9f	0.02303916
58	0x3d9c41e1	0.07629753
59	0x3c8c37fb	0.017116537
60	0x3d03a99d	0.032144178
61	0xbd2e157e	-0.042500965
62	0x3d0c625f	0.0342735
63	0x38c7d35a	9.528427e-05
64	0xbd0f164b	-0.03493337
65	0x3cf08aea	0.029363114
66	0x3cd73cf7	0.026274187
67	0x3b755345	0.0037433666
68	0x3c747920	0.014921457
69	0xbdb53e8b	-0.0884982
70	0xbdbb9035	-0.09158365
71	0xbc9ae044	-0.018905766
72	0xbdb10f07	-0.08645444
73	0x3c6c9f2d	0.014442247
74	0xbda90f93	-0.08254924
75	0x3cefb494	0.029260911
76	0xbbde4ad6	-0.0067838235
77	0xbd5d0e45	-0.053968687
78	0xbc48a37f	-0.012246012
79	0xbdaabe89	-0.08337123
80	0xbd34186b	-0.0439686
81	0x3c97b91a	0.01852088
82	0xba93e080	-0.0011282116
83	0x3d554816	0.0520707
84	0xbd4b0896	-0.049568735
85	0xbc9d6acf	-0.01921597
86	0x3d9f8dae	0.07790695
87	0xbcd23b11	-0.02566293
88	0xbdb02d8f	-0.086024396
89	0xbd10aa08	-0.035318404
90	0xbda41bb9	-0.080131
91	0x3d55ae5c	0.052168235
92	0xbd9b5d7d	-0.07586191
93	0x3ce5e26e	0.028062072
94	0x3d7c2cd0	0.061566174
95	0x3b7593fa	0.0037472234
96	0x3cb82005	0.022476206
97	0x3c511618	0.012761615
98	0xbd807bc0	-0.062736034
99	0x3d369a4b	0.04458074
100	0xbda1d464	-0.079018384
101	0x3da64c44	0.08120015
102	0xbdaf99e7	-0.085742764
103	0x3dafd249	0.085850306
104	0x3d834ed8	0.064115226
105	0xbd433550	-0.047658265
106	0x3d2cab1b	0.042155366
107	0xbda43de2	-0.08019616
108	0xbd43f3ba	-0.047839858
109	0x3d7aad4c	0.061200425
110	0xbd706d97	-0.058698263
111	0xbd4a9a99	-0.049463842
112	0x3d50c346	0.050967477
113	0x3d12b066	0.035812758
114	0xbd834db3	-0.06411304
115	0x3d77492e	0.060372524
116	0x3d778b86	0.060435794
117	0xbd03adde	-0.032148235
118	0xbdd1fa84	-0.1025286
119	0xbc3bca4f	-0.011461808
120	0xbc743918	-0.01490619
121	0xbc3d3d5f	-0.011550277
122	0xbd7a71a0	-0.061143517
123	0x3d324afc	0.043528542
124	0xbdb45fa8	-0.088073075
125	0xbdcd606f	-0.10028159
126	0xbd5d6089	-0.05404714
127	0x3cc825b1	0.024432035
128	0xbcf0e748	-0.029407158
129	0x3c654fd6	0.013996085
130	0x3bb68c5d	0.005570932
131	0x3da751aa	0.08169873
132	0x3d8b1d68	0.06792718
133	0xbd9573f1	-0.07297505
134	0x3c3bae5f	0.0114551475
135	0x3cde1843	0.027111178
136	0x3c99b241	0.018761756
137	0xbd98d3d8	-0.07462281
138	0xbdddb6f5	-0.10825912
139	0x3d16f66e	0.036856107
140	0xbd711599	-0.058858488
141	0xbda3de51	-0.08001388
142	0xbd0787f1	-0.03308863
143	0x3d95496d	0.072893955
144	0x3d934cd5	0.07192389
145	0xbd023084	-0.03178455
146	0x3d83cd96	0.06435697
147	0xbdcd067c	-0.100110024
148	0x3d58f885	0.05297138
149	0x3d037c5c	0.03210102
150	0xbd8a8ac6	-0.0676475
151	0xbb33ae3e	-0.002741709
152	0xbd45c66f	-0.048284944
153	0x3ce345e0	0.02774328
154	0xbd287e49	-0.04113606
155	0xbd3f0ae2	-0.046641238
156	0x3d93518c	0.07193288
157	0xbcb33e2a	-0.021880228
158	0x3d4a1a96	0.04934176
159	0x3cc7e42a	0.02440079
160	0xbc65acf8	-0.01401829
161	0x3d723115	0.05912884
162	0xbd2c324b	-0.04204015
163	0xbb9242c6	-0.0044635264
164	0xbc447788	-0.011991389
165	0xbd0bad77	-0.034100976
166	0x3d5a58bc	0.05330728
167	0x3d2d20e0	0.04226768
168	0xbba39ace	-0.0049928194
169	0xbcd7f563	-0.026362127
170	0xbb966d60	-0.0045906752
171	0xbd62a58a	-0.05533365
172	0x3cad16f3	0.021129107
173	0xbd549c11	-0.05190665
174	0x3d92bcc9	0.07164914
175	0xbd803c74	-0.062615305
176	0xbc5c6163	-0.013450953
177	0x3ce9b877	0.028530343
178	0x3d83c63c	0.064342946
179	0xbd3bd6ed	-0.045859266
180	0x3d552f21	0.0520469
181	0xbd716a15	-0.05893906
182	0xbcdccf7c	-0.026954405
183	0x3a01696d	0.0004936669
184	0xbdb379fd	-0.08763502
185	0xbc053dc9	-0.0081324065
186	0x3d44a207	0.048006084
187	0xbd1d94c3	-0.03847195
188	0xbde8f3a1	-0.113745935
189	0xbc950251	-0.018189581
190	0x3c86e229	0.016465263
191	0xbdc5d5df	-0.09659933
192	0x3da46af7	0.080282144
193	0xbc4af3e2	-0.012387248
194	0x3c16434a	0.009171316
195	0xbd7bafe9	-0.061447058
196	0xba8dab69	-0.001080853
197	0xbcd19019	-0.025581406
198	0x3d6f0f54	0.058364227
199	0x3b66c91d	0.0035215088
200	0xbcdf9f84	-0.027297743
201	0x3daa1bb9	0.08306069
202	0xbb789ec0	-0.003793642
203	0xbda44e23	-0.08022716
204	0x3ca06aa0	0.019582093
205	0xbd81248c	-0.06305799
206	0xbcbb1453	-0.02283684
207	0x3cf5629c	0.029954247
208	0xbd66f7f2	-0.056388803
209	0xbdb56535	-0.08857194
210	0xbd9c2548	-0.07624298
211	0xbd07a4ca	-0.03311614
212	0xbd5be1f6	-0.05368229
213	0xbdd1978e	-0.10233985
214	0xbbecac32	-0.0072226757
215	0xbd117c22	-0.035518773
216	0xbd7aa458	-0.061191887
217	0x3da82fc4	0.082122356
218	0x3d932e80	0.071866035
219	0x3c403b53	0.011732894
220	0x3cfd5e0d	0.030928636
221	0x3ced707b	0.028984299
222	0x3d9756be	0.07389592
223	0xbd3a58e0	-0.045494914
224	0xbdc539e9	-0.09630186
225	0x3d302e64	0.04301299
226	0xbbc54462	-0.0060201148
227	0xbd04d34d	-0.032428075
228	0x3d89f042	0.06735279
229	0xbd1fa7be	-0.03897833
230	0xbda63241	-0.08115054
231	0xbc98d62b	-0.01865681
232	0x3d10643e	0.03525185
233	0xbc8bad7f	-0.017050503
234	0x3cfc8fb6	0.030830245
235	0x3d0fd4b7	0.03511497
236	0x3c9e4e96	0.019324582
237	0x3da27818	0.07933062
238	0x3d4d9bd4	0.050197437
239	0x3d95cceb	0.073144756
240	0xbd6c096d	-0.057626177
241	0xbd7bb93b	-0.061455946
242	0x3ca21dc1	0.019789578
243	0xbd9f7f6e	-0.07787977
244	0x3d6b9b0c	0.05752091
245	0x3daacbc6	0.08339648
246	0xbd169a91	-0.0367685
247	0x3cc08b7c	0.023504011
248	0x3dbab7b9	0.091170736
249	0x3d6392f8	0.055560082
250	0xbb083db6	-0.0020788736
251	0x3cc0734d	0.02349248
252	0x3d36bd02	0.044613846
253	0xbd5b6cb4	-0.053570464
254	0xbd1cad10	-0.038250983
255	0xbd598b7d	-0.053111542

sequential_1/dense_3/MatMul f4 [24, 64]
0	0x3d6d7f9d	0.05798303
1	0x3e1ec0bc	0.1550321
2	0x3e98675d	0.2976636
3	0x3ea9cfb6	0.33166283
4	0xbe5bd590	-0.21468186
5	0xbd02f56f	-0.031972345
6	0x3e02bd3d	0.12767501
7	0x3d8728aa	0.06599553
8	0xbdbba83f	-0.0916295
9	0xbcc63598	-0.024195477
10	0xbf04988b	-0.5179526
11	0xbe516725	-0.20449503
12	0xbe8841eb	-0.2661279
13	0x3e96c5f6	0.29447907
14	0x3e8ed15d	0.27894107
15	0xbed88cfb	-0.4229506
16	0xbee84965	-0.45368496
17	0xbebd8530	-0.37015676
18	0x3e45c219	0.19312324
19	0xbec9b9b1	-0.39399484
20	0xbb937f55	-0.004501263
21	0xbe43c3a8	-0.19117606
22	0xbf10acd9	-0.56513745
23	0xbe0cc706	-0.13747796
24	0xbe299a04	-0.16562659
25	0x3eaca2fc	0.33718097
26	0xbe493923	-0.19650702
27	0x3ca09af5	0.01960514
28	0x3dba4ae4	0.090963155
29	0xbdfe189d	-0.12407038
30	0xbebdfa84	-0.3710519
31	0xbdd447f3	-0.10365286
32	0xbf00e72a	-0.5035273
33	0xbe9897cd	-0.29803315
34	0xbe8a29ea	-0.26985103
35	0xbcbc752e	-0.023005094
36	0xbe742395	-0.23841698
37	0xbeaf68ed	-0.3425974
38	0xbe6971ef	-0.22797368
39	0xbddadf79	-0.10687155
40	0xbec9eda4	-0.39439118
41	0xbe6f1857	-0.23349129
42	0x3e4e05e6	0.20119438
43	0x3e3f41a4	0.18677384
44	0xbf14fe49	-0.5820051
45	0xbf02aefd	-0.5104826
46	0x3e0dfd99	0.13866271
47	0x3e7bab0b	0.24576966
48	0xbeba63e0	-0.36404324
49	0xbee9793a	-0.456003
50	0x3cbf2d4f	0.023337035
51	0xbc3d371a	-0.011548782
52	0x3e15e6a8	0.1463877
53	0x3ea196f4	0.3156048
54	0x3cb64441	0.022249343
55	0xbe166d86	-0.14690217
56	0x3cc4dd11	0.024031194
57	0xbdf99596	-0.121867344
58	0xbe21c538	-0.15797889
59	0xbd62cbf4	-0.055370286
60	0xbe68a881	-0.22720529
61	0x3e0ecac1	0.13944532
62	0x3e50d0bb	0.20392124
63	0x3e0d4182	0.1379452
64	0xbdbb199c	-0.09135744
65	0x3e6a0cfe	0.22856519
66	0xbd1c3569	-0.038136873
67	0xbe1aa876	-0.15103325
68	0xbe9b665e	-0.30351537
69	0xbd535645	-0.051595945
70	0x3a59bd25	0.0008306078
71	0xbe770453	-0.24122743
72	0xbeb684f3	-0.35648307
73	0x3dcbb266	0.09946136
74	0xbe877d51	-0.26462796
75	0xbe29c91c	-0.16580623
76	0x3e4ea207	0.20178996
77	0xbe3598fb	-0.17734139
78	0x3d948245	0.072514094
79	0x3e634175	0.22192939
80	0xbe4c08cf	-0.19925235
81	0xbd978535	-0.07398454
82	0x3e516ba5	0.2045122
83	0xbe97df0b	-0.29662356
84	0xbe7d2a87	-0.24723254
85	0xbe217e8a	-0.15770927
86	0x3e4a223e	0.19739625
87	0xbdc794d8	-0.097451866
88	0xbe35125f	-0.1768279
89	0xbe3324da	-0.17494527
90	0xbef6502a	-0.48108035
91	0x3e5a9521	0.2134595
92	0x3df71274	0.120640665
93	0x3bbacf04	0.0057009477
94	0x3e6c9983	0.23105435
95	0x3e830dfe	0.25596613
96	0x3e84bade	0.25923818
97	0x3e6dfc59	0.23240794
98	0x3e9bf1be	0.30457872
99	0xbcab7f35	-0.02093468
100	0xbea3b03f	-0.31970403
101	0xbf1f7d56	-0.6230062
102	0xbda87f84	-0.08227447
103	0xbec46568	-0.38358617
104	0xbea72b71	-0.3265033
105	0xbe015abb	-0.12632267
106	0xbdb79f22	-0.08965899
107	0xbd6fbd3d	-0.05853008
108	0xbf0cafde	-0.5495585
109	0xbe850c79	-0.25986078
110	0xbedfb563	-0.43693075
111	0x3bb47c2c	0.0055079665
112	0x3e8a129c	0.26967323
113	0xbe6373dd	-0.22212167
114	0x3ca7755c	0.020441703
115	0x3dd620f8	0.10455507
116	0xbe3a07a6	-0.1816698
117	0xbe17e8de	-0.14834926
118	0x3df5a95e	0.11995195
119	0xbed4c266	-0.41554564
120	0xbe5b1786	-0.21395692
121	0xbd89df8a	-0.0673209
122	0xbe8011e7	-0.25013658
123	0xbbb21ea7	-0.005435783
124	0xbe1bd88b	-0.15219323
125	0xbf088fde	-0.53344524
126	0x3e665e13	0.22496824
127	0x3e5211b2	0.20514563
128	0xbe578190	-0.21045518
129	0x3deb0b18	0.11476725
130	0x3e60c0cd	0.21948548
131	0x3e880c47	0.26571867
132	0x3e62af61	0.22137214
133	0x3e31013d	0.17285629
134	0xbe2bc907	-0.16775905
135	0xbe096b03	-0.13419728
136	0xbee83c7c	-0.45358646
137	0xbd463d38	-0.048398226
138	0xbea2ed8a	-0.31821853
139	0x3e37a6d3	0.17934732
140	0xbdbcc093	-0.09216418
141	0x3e4b2cfa	0.19841376
142	0xbea6dcee	-0.3259043
143	0xbdd345a2	-0.10316016
144	0xbd2fa072	-0.042877622
145	0xbeb59e4f	-0.35472342
146	0xbe8f0135	-0.27930608
147	0xbea04a0a	-0.31306487
148	0xbc6d444f	-0.014481618
149	0xbe13a911	-0.14419962
150	0xbe29b3b4	-0.16572458
151	0xbe834419	-0.25637892
152	0xbcac04c5	-0.020998368
153	0x3e889c23	0.26681623
154	0x3e5d5fa7	0.2161852
155	0x3dbd7ad5	0.09251944
156	0xbde6daff	-0.11272239
157	0x3e397312	0.18110302
158	0xbe503b7d	-0.20335193
159	0x3e471661	0.1944213
160	0xbdb969cf	-0.090533845
161	0x3e1d89ec	0.15384644
162	0xbf10863c	-0.56454825
163	0x3dfb4bfe	0.12270354
164	0x3e39beb1	0.18139149
165	0x3e2c6cd3	0.16838388
166	0x3e87fe09	0.26561
167	0x3d3a63df	0.0455054
168	0xbee7378b	-0.45159563
169	0x3e364bc2	0.17802337
170	0x3e3caff6	0.18426499
171	0xbe223f59	-0.15844478
172	0xbf06aff4	-0.52612233
173	0x3e79922a	0.24372163
174	0x3cbfc6de	0.023410257
175	0x3e8c7dc3	0.274397
176	0xbdfa24b9	-0.122140355
177	0x3e9ccc69	0.30624703
178	0x3dfc0e58	0.12307423
179	0x3e43e539	0.1913041
180	0xbe20a979	-0.15689649
181	0x3e847c6b	0.25876173
182	0xbee40279	-0.44533136
183	0x3e773384	0.24140745
184	0x3d0f7f1a	0.035033323
185	0xbd30ab7c	-0.04313229
186	0xbe9ed9ef	-0.31025645
187	0xbd8c7f3f	-0.06860208
188	0xbe456ea5	-0.19280489
189	0xbf06cfec	-0.52661014
190	0x3e3ce989	0.18448462
191	0xbf0ca8fb	-0.54945344
192	0x3e27db75	0.1639231
193	0x3e3a074d	0.18166848
194	0xbe44eca0	-0.1923089
195	0x3e86a5a0	0.26298237
196	0xbec5b3a4	-0.38613617
197	0x3e01045c	0.12599319
198	0x3dc6e4a9	0.09711582
199	0x3e6a79f7	0.22898088
200	0xbebde378	-0.37087607
201	0x3e63c313	0.22242384
202	0xbe097cc8	-0.13426507
203	0xbf0a5460	-0.54034996
204	0x3de11c47	0.109917216
205	0xbecf0dd3	-0.40440235
206	0x3e44bb58	0.19212091
207	0xbec4f6b7	-0.38469478
208	0xbe846d3d	-0.25864592
209	0xbecc9c79	-0.3996313
210	0x3e42235f	0.18958806
211	0x3e2f5102	0.17120746
212	0x3e5aa53e	0.21352097
213	0xbe0a427e	-0.13501927
214	0xbd320d4c	-0.043469712
215	0x3bd32598	0.0064436905
216	0xbe823552	-0.25431305
217	0xbe807503	-0.25089273
218	0x3e5da749	0.21645845
219	0xbe837ab7	-0.25679561
220	0x3c89bfbc	0.016815059
221	0x3e271165	0.16315229
222	0xbd4bc253	-0.04974587
223	0x3e8333cd	0.25625458
224	0xbd0a5564	-0.03377284
225	0xbe8379ed	-0.2567896
226	0x3d5dfcd6	0.0541962
227	0x3d8de73a	0.069288686
228	0xbea4dde6	-0.32200545
229	0xbe6709db	-0.22562353
230	0xbf0d618d	-0.55226976
231	0x3d0839f5	0.033258397
232	0x3e3ecc6a	0.18632665
233	0xbebe6c5b	-0.37192044
234	0xbe69f72f	-0.228482
235	0x3c26cba4	0.010180388
236	0xbeed7516	-0.46378392
237	0xbec39ead	-0.38206998
238	0xbf00728c	-0.50174785
239	0x3e901de3	0.28147802
240	0x3e9d340e	0.30703777
241	0xbec06c4b	-0.3758262
242	0xbe5d34a5	-0.21602114
243	0xbe3c5fc3	-0.18395905
244	0x3dd2cfcb	0.102935396
245	0x3d305902	0.043053634
246	0xbe9b85a3	-0.30375394
247	0x3d928aa5	0.071553506
248	0xbdd520cd	-0.10406647
249	0xbd42e66a	-0.04758302
250	0xbe899427	-0.26870844
251	0xbddca724	-0.10774067
252	0x3cb3e9c2	0.02196205
253	0x3e4ff9b9	0.20310105
254	0x3e7c2a5f	0.24625538
255	0x3e4badbd	0.19890495

sequential_1/conv2d_3/Conv2D f4 [32, 3, 3, 1]
0	0x3d812974	0.06306735
1	0xbd06ed95	-0.03294142
2	0xbe50fcb6	-0.20408902
3	0x3ea9a647	0.33134672
4	0xbd238a31	-0.03992671
5	0xbe7bf16a	-0.24603811
6	0x3e82b1d4	0.25526297
7	0x3c3f168a	0.011663089
8	0xbe5ad117	-0.21368824
9	0xbe9f59a5	-0.3112308
10	0xbe33283d	-0.17495818
11	0x3cc5bdad	0.024138296
12	0xbb3d7776	-0.0028910316
13	0xbabcefb6	-0.0014414701
14	0x3e78b739	0.24288644
15	0xbe080707	-0.1328393
16	0x3e343997	0.17600094
17	0x3e42d368	0.19025958
18	0x3db6d9ad	0.08928237
19	0x3e0fbf5e	0.14037845
20	0x3d958526	0.07300787
21	0xbdcf38b2	-0.10118236
22	0xbce97be1	-0.028501453
23	0xbd0e513c	-0.03474544
24	0xbd3b2c24	-0.045696393
25	0xbe437133	-0.19086151
26	0xbe18a0ed	-0.14905138
27	0xbd2367a5	-0.039893765
28	0x3eb2744c	0.34854352
29	0x3e246245	0.16053112
30	0xbe86e977	-0.26349995
31	0xbe08446a	-0.13307348
32	0x3dac309b	0.08407708
33	0xbe3893e1	-0.18025161
34	0xbdf4e67f	-0.11958026
35	0x3dd37055	0.1032416
36	0xbd1db2f3	-0.038500737
37	0x3db3d153	0.0878016
38	0xbe3b411c	-0.18286556
39	0x3e51cab2	0.20487478
40	0x3aa7aaf6	0.0012792039
41	0xbd69cb73	-0.05707879
42	0x3e908d39	0.28232744
43	0xbdb7526c	-0.089512676
44	0xbe7cb232	-0.24677351
45	0xbdc05b35	-0.09392396
46	0xbe0df5ec	-0.13863343
47	0x3b847eca	0.0040434347
48	0xbbd3ac2d	-0.006459734
49	0x3bfa3955	0.007636229
50	0xbd7afe7a	-0.061277844
51	0xbd6c7f98	-0.05773887
52	0xbdc962bc	-0.09833285
53	0x3bc6fc64	0.006072568
54	0xbd9c0421	-0.07617975
55	0xbe990f13	-0.29894313
56	0xbda40119	-0.08008022
57	0x3e049e87	0.12951098
58	0xbe546ceb	-0.20744674
59	0x3e1bcfdb	0.1521601
60	0x3d850204	0.06494525
61	0x3dda7d95	0.10668484
62	0x3e128b38	0.1431092
63	0x3e886ead	0.2664694
64	0x3dc540a6	0.09631471
65	0xbe79518a	-0.24347511
66	0x3d79c659	0.060980175
67	0xb84cdb4c	-4.8841626e-05
68	0xbe8089e7	-0.2510521
69	0xbc590de1	-0.013247938
70	0x3dadc812	0.08485426
71	0xbd74d6df	-0.05977523
72	0x3cde62db	0.027146747
73	0x3e87d3c2	0.26528746
74	0x3cc6a3cc	0.024248026
75	0xbe4828ac	-0.19546765
76	0xbc5c1645	-0.013433044
77	0xbe0367ec	-0.12832612
78	0xbe8e6dd4	-0.27818167
79	0x3cd2cc3b	0.02573215
80	0x3e23fe05	0.1601487
81	0xbe055595	-0.13020928
82	0xbdce2016	-0.10064714
83	0x3ddbaa90	0.107258916
84	0xbe901637	-0.2814195
85	0xbdb09ee8	-0.08624059
86	0x3e59efda	0.21282902
87	0xbe23cd7d	-0.15996356
88	0x3e24dd03	0.16099934
89	0x3e72acb1	0.23698689
90	0xbe8f4577	-0.27982685
91	0xbe4304f3	-0.19044857
92	0xbe492d73	-0.19646244
93	0xbc995c26	-0.018720698
94	0x3e33c40a	0.17555252
95	0x3e375c53	0.17906313
96	0x3da5c89d	0.080949046
97	0x3e280c77	0.16411005
98	0x3cf0f96f	0.029415814
99	0xbd1d8d8a	-0.03846506
100	0xbd789251	-0.060686413
101	0x3e95b69d	0.29240885
102	0xbb864ab7	-0.004098262
103	0xbea98900	-0.33112335
104	0x3e76f062	0.24115136
105	0xbc83a4e5	-0.016069839
106	0xbe95f056	-0.29284924
107	0x3c1ee06d	0.009697062
108	0x3e2e7c99	0.17039718
109	0x3e624d2c	0.22099751
110	0xbde2e340	-0.11078501
111	0xbe45e4b2	-0.19325522
112	0xbc225909	-0.009908923
113	0xbd0b4a3b	-0.03400634
114	0xbdb42226	-0.08795576
115	0xbe7f3e43	-0.24926095
116	0x3e42a7a1	0.19009258
117	0x3d856fa4	0.065154344
118	0x3d07820e	0.033083014
119	0x3e195f5e	0.14977786
120	0x3d2e8a32	0.042612262
121	0x3db8289b	0.0899212
122	0xbd0c23a4	-0.034213677
123	0xbc5525e8	-0.013009526
124	0x3dbd8e0d	0.0925561
125	0x3e1b11ef	0.1514356
126	0x3d5b56c6	0.05354955
127	0xbce5cbd7	-0.0280513
128	0x3d43c6ff	0.0477972
129	0x3d91d521	0.07120729
130	0x3df8b6e0	0.12144256
131	0x3dd988fd	0.106218316
132	0x3d053083	0.032516968
133	0x3dec6cd2	0.11544193
134	0x3d82a83d	0.06379745
135	0xbe4cc332	-0.19996336
136	0x3e172250	0.14759183
137	0x3e4c02c7	0.19922934
138	0xbdd26da9	-0.10274822
139	0x3dd3c94d	0.103411295
140	0x3dd5b7b0	0.10435426
141	0x3e01b45a	0.12666455
142	0x3d8539eb	0.065051876
143	0x3da8755d	0.0822551
144	0x3e51ab93	0.20475607
145	0xbe211275	-0.15729697
146	0xbe422185	-0.18958099
147	0x3d1b0f35	0.0378563
148	0xbdb7d60d	-0.08976374
149	0xbe156c34	-0.14592057
150	0x3e94de68	0.29075933
151	0xbe6bf9df	-0.23044537
152	0x3cef0485	0.02917696
153	0xbd93b8cb	-0.07212981
154	0x3e161a41	0.14658453
155	0x3e38c3c4	0.18043429
156	0x3dd1b89e	0.10240291
157	0x3dd65aaf	0.10466515
158	0x3e013189	0.12616552
159	0xbc29c30b	-0.010361443
160	0x3b41905e	0.0029535512
161	0xbda8ce70	-0.082425
162	0x3d767469	0.06016961
163	0x3d762af9	0.060099576
164	0x3de339b4	0.110949904
165	0x3e1f7318	0.15571249
166	0x3e3df6d7	0.18551193
167	0xbe570ed9	-0.21001758
168	0x3e3d9e48	0.18517411
169	0xbd2ceb1a	-0.042216398
170	0xbe862f6b	-0.26208052
171	0xbcca0cfa	-0.02466439
172	0xbc5ed33f	-0.01360017
173	0x3e0e3156	0.13886008
174	0xbc97276f	-0.01845142
175	0x3e46d9f2	0.19419077
176	0x3daa8fe5	0.08328227
177	0x3d43b157	0.047776546
178	0x3d2d6a5e	0.042337768
179	0x3dde4f04	0.10854915
180	0x3d981935	0.07426683
181	0x3d765622	0.060140736
182	0x3dbf3d98	0.0933792
183	0xbd2b1bd2	-0.04177458
184	0x3e1c3573	0.15254764
185	0x3d506ce2	0.05088509
186	0x3dec4fbd	0.11538646
187	0x3b4a1804	0.0030837068
188	0x3d8fc08e	0.07019149
189	0xbd5a2706	-0.053259872
190	0xbe5b68e0	-0.21426725
191	0xbe6b6fc4	-0.22991854
192	0xbe58c4e4	-0.21168858
193	0x3e17e8e1	0.1483493
194	0x3dd67a89	0.104725905
195	0x3d8c96e4	0.068647176
196	0x3e89e8cb	0.2693542
197	0x3dc97791	0.098372586
198	0xbd36a606	-0.044591926
199	0x3bbcdbc7	0.005763504
200	0x3d9a3932	0.075304404
201	0xbe1634d3	-0.14668588
202	0xbe96fa54	-0.2948786
203	0x3e87a595	0.26493517
204	0x3da86fea	0.08224471
205	0xbe23dcbf	-0.16002177
206	0x3dd1bfb2	0.10241641
207	0x3cd88a88	0.026433244
208	0x3ce080c0	0.027405143
209	0x3e0443f4	0.12916547
210	0xbda4d1fb	-0.08047863
211	0x3e403602	0.18770602
212	0x3e4425ae	0.19154999
213	0x3dcf9b49	0.1013704
214	0xbbf5fd01	-0.007506967
215	0xbda2fe81	-0.07958699
216	0x3e58f716	0.21188006
217	0x3e201c08	0.15635693
218	0x3db1ebd8	0.08687562
219	0x3d4ecce9	0.050488386
220	0x3c7c612a	0.015404025
221	0xbde8ff19	-0.11376781
222	0xbe5ee6a9	-0.21767677
223	0xbe70cfe6	-0.23516807
224	0x3caaf021	0.020866456
225	0x3cc8e36a	0.024522502
226	0x3e8c1938	0.2736299
227	0x3e4ac9f4	0.19803602
228	0xbe02e630	-0.12783122
229	0xbe35fd47	-0.17772399
230	0x3e625bca	0.22105327
231	0x3d31c636	0.04340192
232	0xbe9845ec	-0.29740846
233	0xbe4bb53c	-0.19893354
234	0xbde2d2d7	-0.11075371
235	0xbddfa559	-0.109202094
236	0x3c5e6b34	0.013575364
237	0xbd888ed3	-0.066678666
238	0x3d13bbbb	0.036067706
239	0xbda03203	-0.07822039
240	0xbdd52372	-0.10407151
241	0x3d44531b	0.047930818
242	0xbdc867eb	-0.09785446
243	0x3dcb6347	0.09931045
244	0xbe2d0356	-0.16895804
245	0x3aefc517	0.001829299
246	0xbdb0dd78	-0.08635992
247	0xbe8d6ca1	-0.2762194
248	0xbb15e992	-0.0022874814
249	0xbd108265	-0.035280604
250	0x3bb00b41	0.0053724353
251	0x3ebfb37d	0.37441626
252	0xbe05fc2b	-0.13084476
253	0xbe838c60	-0.25693035
254	0xbe4e267f	-0.20131873
255	0x3cdf735f	0.027276693

sequential_1/conv2d_4/Conv2D f4 [64, 3, 3, 32]
0	0xbe939569	-0.28824928
1	0x3ddf28cc	0.10896453
2	0xbe370770	-0.17873931
3	0x3db00ed5	0.08596579
4	0xbe32165b	-0.1739134
5	0x3d8553b9	0.065101095
6	0xbc93adf3	-0.018027281
7	0xbed1d035	-0.40979162
8	0xbd990290	-0.07471192
9	0x3e083261	0.13300468
10	0x3dedf339	0.11618657
11	0xbd807b4a	-0.062735155
12	0x3e17a732	0.14809874
13	0x3dab3b43	0.08360913
14	0x3d396c6d	0.04526942
15	0xba96edd8	-0.0011514975
16	0xbe9b5a5e	-0.30342382
17	0xbd9b743d	-0.0759053
18	0xbdcf123d	-0.101109006
19	0xbd6d6f6b	-0.057967585
20	0x3ce66c52	0.028127823
21	0x3e127d42	0.14305595
22	0x3d9bf696	0.07615392
23	0xbd1535a7	-0.03642812
24	0xbb21d451	-0.00246932
25	0x3cc6e8a5	0.024280855
26	0x3d9059c3	0.07048371
27	0x3dd00ea0	0.101590395
28	0x3e23073b	0.15920727
29	0xbea920f2	-0.33032948
30	0x3e0c0ca3	0.13676696
31	0xbe9821af	-0.297132
32	0xbcfc63fa	-0.030809391
33	0x3c8d8b9b	0.017278483
34	0xbe68c13b	-0.22729962
35	0xbe743f1c	-0.238522
36	0x3de44cb1	0.1114744
37	0x3d393caa	0.04522387
38	0xbedbb4a6	-0.4291126
39	0xbe2f1d5e	-0.17101046
40	0xbe9f86fd	-0.31157675
41	0xbe371fd7	-0.1788324
42	0xbe2287d4	-0.15872127
43	0xbef8a306	-0.48561877
44	0xbe8c674a	-0.27422553
45	0x3d373b54	0.044734314
46	0x3cfab73c	0.030604951
47	0x3d07bb80	0.0331378
48	0xbe55a4c8	-0.2086364
49	0x3d45d447	0.048298147
50	0x3aba4e85	0.0014214074
51	0x3db36537	0.087595396
52	0xbd050ef8	-0.03248498
53	0xbce204d9	-0.027590202
54	0xbec2ba20	-0.38032627
55	0x3c801433	0.015634632
56	0xbd9e8363	-0.07739904
57	0xbd771849	-0.060325895
58	0x3a63e400	0.00086933374
59	0xbf1d426e	-0.6142949
60	0xbd95bc6f	-0.073113315
61	0xbeb9cee6	-0.36290663
62	0xbac52ef4	-0.00150439
63	0xbd06d4c9	-0.03291777
64	0x3cf78bd4	0.030218042
65	0xbe9598b8	-0.29218078
66	0x3cd4f6c6	0.025996577
67	0xbdf61586	-0.12015824
68	0x3d8b4583	0.06800368
69	0xbd472e3b	-0.048628073
70	0xbedf9756	-0.43670148
71	0x3b07675f	0.002066098
72	0xbea17f83	-0.31542596
73	0xbf01497b	-0.5050275
74	0xbef6057b	-0.48051056
75	0xbe6d1459	-0.23152293
76	0xbd55c19a	-0.052186586
77	0xbd6f643e	-0.058445208
78	0x3d14b548	0.036305696
79	0xbd5815a1	-0.052755002
80	0xbd4afc50	-0.04955703
81	0xbd23d532	-0.03999824
82	0x3cdec8c2	0.027195338
83	0xbd3ddf1e	-0.04635536
84	0xbd1d2e8a	-0.03837446
85	0xbf3bc09d	-0.7334078
86	0xbe8bc6c7	-0.27300093
87	0x3cb0e017	0.02159123
88	0x3d4c5045	0.04988124
89	0x3e539240	0.20661259
90	0xbb97f7b0	-0.004637681
91	0xbef314fe	-0.47476953
92	0xbf0e978d	-0.557
93	0xbe07aab3	-0.1324871
94	0xbdfb16e4	-0.122602254
95	0x3c7a462c	0.015275519
96	0x3e249677	0.16073023
97	0x3da299bc	0.07939479
98	0x3d1932a3	0.037401807
99	0x3e3fcaff	0.1872978
100	0x3e8eca9e	0.2788896
101	0x3d8fe239	0.070255704
102	0xbdc0d4e6	-0.09415607
103	0x3b6630e5	0.0035124358
104	0x3de211cb	0.1103855
105	0x3da85d25	0.08220891
106	0xbd764b90	-0.060130656
107	0x3e129079	0.14312924
108	0x3e717353	0.23579149
109	0x3ce8e4b3	0.028429365
110	0xbcb369f1	-0.021901103
111	0x3d94c20f	0.07263576
112	0xbd7e7226	-0.06212058
113	0x3caeac34	0.021322347
114	0x3df6ec14	0.12056747
115	0xbd257372	-0.0403933
116	0x3c23d704	0.009999994
117	0xbdd8b87a	-0.10582061
118	0x3e148c4f	0.14506648
119	0x3d8d837a	0.06909843
120	0x3df7624a	0.12079294
121	0x3e31be18	0.17357671
122	0x3d366b09	0.04453567
123	0x3c2c37c2	0.010511341
124	0xbd8401a6	-0.06445627
125	0x3b9aa213	0.004719028
126	0x3d84e3f1	0.06488789
127	0x3e14e848	0.14541733
128	0xbc856a65	-0.016286084
129	0xbe87325b	-0.26405606
130	0x3e334ad0	0.17509007
131	0x3dcc7ef0	0.09985149
132	0x3e244360	0.16041327
133	0xbd8454ae	-0.06461464
134	0xbf276649	-0.6539045
135	0x3e3051e4	0.17218739
136	0x3e8a64e2	0.27030092
137	0xbe1fe4b3	-0.15614586
138	0xbecbc69b	-0.3979996
139	0xbe0592aa	-0.13044229
140	0x3eaf8ca8	0.34287
141	0xbcb12537	-0.02162419
142	0xbcb561e7	-0.02214141
143	0xbd1cbcc6	-0.038265966
144	0xbe0126d4	-0.12612468
145	0x3d40a4db	0.04703222
146	0x3dd54521	0.10413576
147	0x3d5706cc	0.052496716
148	0x3d2877a4	0.041129723
149	0xbe459607	-0.19295512
150	0xbe3f2739	-0.18667306
151	0x3d51222f	0.05105799
152	0x3ebe10bb	0.3712214
153	0x3e0e5c21	0.13902332
154	0x3d25edc0	0.04050994
155	0xbeb25a12	-0.34834343
156	0xbe7dfb61	-0.24802925
157	0xbeb0e06a	-0.34546214
158	0xbe3eeefb	-0.18645851
159	0x3e0da509	0.13832487
160	0x3bd4b163	0.0064908727
161	0xbec55926	-0.38544577
162	0x3e6e7180	0.23285484
163	0xbdee905e	-0.116486296
164	0x3d77a792	0.060462542
165	0x3cc8502e	0.024452295
166	0xbe350bce	-0.17680284
167	0x3e328258	0.17432535
168	0x3ddfd9ba	0.109302
169	0xbe86cc7f	-0.26327893
170	0xbe543df7	-0.20726763
171	0xbd26c986	-0.04071953
172	0x3e454b2a	0.19266954
173	0xbd72a5f8	-0.05924031
174	0xbc3789e0	-0.011202306
175	0xbe000043	-0.125001
176	0x3e46fb99	0.19431914
177	0xbd8941ac	-0.06701979
178	0x3c1607c5	0.009157126
179	0xbcd85a74	-0.026410319
180	0xbd35955c	-0.044331893
181	0xbe02f49f	-0.12788628
182	0xbe1ebf7f	-0.15502737
183	0xbe011b3b	-0.12608044
184	0x3e847dea	0.25877315
185	0x3db11008	0.08645636
186	0xbd75b3ea	-0.059986033
187	0x3d17eaf9	0.03708932
188	0xbe1fb0d7	-0.15594803
189	0x3d11abbe	0.035564177
190	0xbe77975a	-0.2417883
191	0x3dfdd0b9	0.12393326
192	0x3ea2557c	0.31705844
193	0xbd841692	-0.064496174
194	0x3de780f3	0.11303892
195	0x3db283db	0.08716556
196	0x3e8a3f74	0.27001536
197	0x3d6146d6	0.054999195
198	0xbcef3854	-0.029201664
199	0x3eee17f1	0.4650264
200	0x3d1b2c44	0.037884012
201	0x3c99b846	0.018764626
202	0xbe9f8237	-0.31154034
203	0x3e9b200f	0.30297896
204	0x3ded1d14	0.11577812
205	0x3cf313da	0.029672552
206	0xbd837c62	-0.064202085
207	0xbd32610c	-0.043549582
208	0x3e0c60ab	0.13708751
209	0xbd998f44	-0.07498029
210	0x3e398910	0.18118691
211	0xbda68649	-0.081310816
212	0xbd6d88d2	-0.05799181
213	0xbde7789c	-0.11302301
214	0x3ead454d	0.33841935
215	0xbdaa8681	-0.08326436
216	0x3e4a6912	0.19766644
217	0x3e966a4b	0.2937797
218	0x3d455469	0.048176203
219	0x3c9094a1	0.017648997
220	0x3c905af7	0.0176215
221	0x3e01a410	0.12660241
222	0xba30d98f	-0.0006746286
223	0x3eba991b	0.36444935
224	0xba94dd82	-0.0011357518
225	0x3d50105f	0.050796863
226	0x3e8f7fdb	0.28027233
227	0x3e1e9b2d	0.15488882
228	0x3c89bceb	0.016813716
229	0xbd347b43	-0.044062864
230	0x3dc50628	0.09620315
231	0x3e418205	0.18897255
232	0x3ecbfd18	0.39841533
233	0x3e5b67e2	0.21426347
234	0x3d33afb5	0.04386874
235	0x3e4163f3	0.18885784
236	0x3ee7b1e5	0.4525291
237	0xbd5214df	-0.051289435
238	0x3c1bde96	0.009513518
239	0xbda36403	-0.0797806
240	0x3c84fcda	0.01623385
241	0xbdbf26ad	-0.09333549
242	0xbd4fa5d6	-0.050695263
243	0xbd6bc9e9	-0.057565603
244	0xbde8e62f	-0.11372029
245	0x3ded8570	0.11597717
246	0x3ea17339	0.3153322
247	0xbdb03d6d	-0.08605466
248	0x3ec84d2c	0.39121377
249	0x3e0c8d0e	0.13725683
250	0x3d2b2f3f	0.041793104
251	0x3e2d65c0	0.16933346
252	0x3e12e3e4	0.14344746
253	0xbc4030ef	-0.011730417
254	0xbcdb135a	-0.026742626
255	0x3db85093	0.08999743

sequential_1/conv2d_5/Conv2D f4 [64, 3, 3, 64]
0	0x3d4d0b71	0.05005974
1	0xbc14a4fa	-0.009072537
2	0xbc05e91a	-0.0081732515
3	0x3d1283f9	0.03577039
4	0xbd200726	-0.039069317
5	0x3e111e7a	0.14171782
6	0x3da144b5	0.07874433
7	0xbce1e97f	-0.02757716
8	0x3d0e1822	0.034690984
9	0xbd8669ef	-0.06563174
10	0xbd1f9706	-0.038962387
11	0x3dda1761	0.106489904
12	0x3da8ba54	0.08238664
13	0xbd3c4da1	-0.04597247
14	0xbddcc20a	-0.107791975
15	0xbd044fee	-0.03230279
16	0x3de9c322	0.11414172
17	0x3d8994f7	0.06717866
18	0x3dbfd91a	0.09367581
19	0x3de4b625	0.11167554
20	0x3cd37a50	0.02581516
21	0xbbb40a54	-0.0054943953
22	0x3d51ba25	0.051202912
23	0x3cf18bf6	0.029485684
24	0x3e036342	0.12830833
25	0x3d0b54cf	0.034016427
26	0xbcb4a09c	-0.02204924
27	0x3dcf560d	0.10123835
28	0x3db2e28b	0.08734616
29	0x3e0a90b5	0.13531764
30	0x3c66c890	0.014085904
31	0x3e244296	0.16041026
32	0xbcf340e5	-0.02969403
33	0x3d0e0ec9	0.03468207
34	0x3da720b4	0.081605345
35	0x3dcf5ee5	0.101255216
36	0xb93f72aa	-0.00018257895
37	0x3e3e968d	0.18612118
38	0x3d7e9c2c	0.062160656
39	0x3d2e71ed	0.042589117
40	0x3e4f139b	0.20222323
41	0x3e3108ac	0.17288464
42	0x3d22f659	0.039785717
43	0xbd4ef8d3	-0.050530266
44	0x3db63043	0.08895924
45	0xbcbcd35e	-0.023050006
46	0x3d976f6c	0.07394299
47	0xbdd807d1	-0.10548366
48	0x3d747afa	0.059687592
49	0xbcb43dcd	-0.022002125
50	0x3ceb8664	0.028750606
51	0x3d5cdd13	0.05392177
52	0x3e1fbf7d	0.1560039
53	0xbc464a0b	-0.012102614
54	0x3e45105a	0.19244519
55	0x3e1028ba	0.14078036
56	0x3e63d089	0.22247519
57	0x3bed89e9	0.007249106
58	0xbc077f8d	-0.008270157
59	0x3dc96912	0.09834494
60	0x3e0ae0a9	0.13562264
61	0xbdb5d7a7	-0.08879023
62	0x3dda715c	0.10666153
63	0x3d79161d	0.060812104
64	0x3d32af65	0.0436243
65	0xbcae4e1b	-0.021277478
66	0xbe67aedd	-0.22625299
67	0x3db531e0	0.088474035
68	0xbde808d7	-0.11329811
69	0xbb23067d	-0.0024875693
70	0xbd745002	-0.059646614
71	0xbd45b037	-0.048263755
72	0xbcf1caf0	-0.029515713
73	0xbbc33fab	-0.0059585175
74	0xbda7752e	-0.08176647
75	0xbcea4851	-0.028598936
76	0x3d1e92d3	0.03871424
77	0x3c72cf59	0.014819943
78	0x3d77e933	0.06052513
79	0xbd4326bf	-0.047644373
80	0x3dd4847a	0.103768304
81	0x3e028f09	0.12749876
82	0x3d5dac1f	0.054119226
83	0xbe006d3e	-0.12541673
84	0xbd29d2a0	-0.041460633
85	0xbcbf026a	-0.02331658
86	0xbde0d96c	-0.1097897
87	0x3d921ccb	0.07134398
88	0x3d280371	0.041018907
89	0xbdf0cd23	-0.11757877
90	0x3da3bf76	0.07995503
91	0xbd337c29	-0.04381958
92	0x3d11fbb3	0.03564043
93	0x3e184688	0.14870656
94	0x3e52ac52	0.20573547
95	0x3d1e1f4f	0.038604077
96	0x3c1c277e	0.0095309
97	0xbdb6064c	-0.0888792
98	0xbcbf0dd4	-0.023322023
99	0xbcade5c9	-0.021227734
100	0xbdc7a78f	-0.09748756
101	0x3dd5070c	0.10401735
102	0x3d24de53	0.040251087
103	0x3cfcba04	0.030850418
104	0x3e3537d4	0.17697078
105	0x3e693d40	0.22777271
106	0xbd4896d4	-0.048971966
107	0xbe11d8d3	-0.14242868
108	0x3d9afb22	0.07567431
109	0xbe07bcfb	-0.13255684
110	0xbd8528c4	-0.06501916
111	0x3dd56cf5	0.104211725
112	0xbd7ca974	-0.06168504
113	0xbe06c38c	-0.13160533
114	0x3d2fa214	0.04287918
115	0xbd71d1b3	-0.059037875
116	0x3e29cbf1	0.16581704
117	0x3abfeaa8	0.0014642077
118	0x3e1ff57d	0.1562099
119	0x3dad5b34	0.08464661
120	0x3e4c71bc	0.19965261
121	0xbdaf71dd	-0.085666396
122	0x3dc99748	0.09843308
123	0x3db2139d	0.08695147
124	0x3ccbf39e	0.02489644
125	0xbd42b93f	-0.047539946
126	0x3e7bb699	0.24581374
127	0x3babe6cc	0.005246019
128	0xbd62e7ea	-0.05539695
129	0xbd3b9b26	-0.045802258
130	0xbd40b1c3	-0.047044527
131	0x3cd70e17	0.026251836
132	0xbdad9829	-0.08476288
133	0x3dfd85b7	0.1237902
134	0x3d020247	0.031740453
135	0xbd9c194c	-0.076220125
136	0xbdf6674f	-0.12031423
137	0x3cab2da1	0.020895781
138	0xbe09448d	-0.13405056
139	0x3cc5428f	0.02407959
140	0x3d840702	0.06446649
141	0x3d59629f	0.053072568
142	0xbd0891d6	-0.033342205
143	0x3cd937ef	0.026515929
144	0x3e03b345	0.12861355
145	0xbd1e56ac	-0.038656875
146	0x3d98d3f2	0.074623
147	0xbd978e09	-0.07400138
148	0xbcc63b3b	-0.024198165
149	0xbce90efa	-0.028449524
150	0xbd6ee9f3	-0.05832858
151	0xbd242e51	-0.040083233
152	0xbc73ba28	-0.014875926
153	0xbd98ac5e	-0.074547514
154	0x3e056505	0.13026817
155	0xbdeb588d	-0.11491499
156	0x3d235522	0.03987611
157	0x3e1b73b4	0.15180856
158	0xbaa92d05	-0.0012907094
159	0xbd0e6dd1	-0.034772698
160	0xbd04f912	-0.032464094
161	0xbbaba799	-0.005238485
162	0xbcf4495e	-0.02982014
163	0xbe549f1a	-0.20763817
164	0xbdf476d3	-0.119367264
165	0xbcdbb964	-0.0268218
166	0xbd0d9643	-0.03456713
167	0xbd420d4e	-0.04737597
168	0xbbbc7e65	-0.005752372
169	0x3de33daf	0.110957496
170	0x3e22859f	0.15871285
171	0xbe1975d6	-0.14986357
172	0x3d11aab3	0.035563182
173	0xbce18c70	-0.027532786
174	0xbd903da7	-0.07043009
175	0x3e23ce55	0.15996678
176	0x3d085acc	0.033289716
177	0xbe516052	-0.204469
178	0x3cf0da09	0.029400842
179	0xbd7bcab7	-0.06147262
180	0x3d1ab8dd	0.037773956
181	0x3e353d38	0.17699134
182	0x3d38783d	0.045036543
183	0x3d36b535	0.044606406
184	0x3e037836	0.12838826
185	0x3c9bedd3	0.019034302
186	0x3d31926e	0.043352537
187	0x3d02f24b	0.03196935
188	0x3c217623	0.009854826
189	0x3de46b60	0.11153293
190	0x3e430956	0.1904653
191	0x3d915918	0.070970714
192	0xbe061abe	-0.13096139
193	0x3d25552f	0.04036444
194	0xbda4e315	-0.08051125
195	0x3c6ab736	0.014325907
196	0xbcf47e40	-0.029845357
197	0x3d85d8cd	0.06535492
198	0x3e104c24	0.14091545
199	0xbd3baa23	-0.045816552
200	0xbd730073	-0.0593266
201	0x3d0ecbbe	0.034862272
202	0x3d92557e	0.071452126
203	0x3bc3dec8	0.0059774853
204	0xbc7ad166	-0.015308714
205	0xbdb16d6c	-0.08663449
206	0x3c8d9bdc	0.017286234
207	0xbcdf6c7e	-0.027273413
208	0x3db9c49f	0.090707056
209	0xbdadfda4	-0.08495644
210	0xbc9aa9d9	-0.018879818
211	0x3d31448f	0.043278273
212	0x3c94fda8	0.018187359
213	0xbcab0d37	-0.020880325
214	0x3db793ff	0.08963775
215	0x3d267860	0.040642142
216	0x3df49abc	0.11943576
217	0xbd084073	-0.03326459
218	0x3d63daf2	0.055628724
219	0xbdd195b0	-0.10233629
220	0x3d7b2e25	0.061323304
221	0x3d348b08	0.044077903
222	0xbd527814	-0.051384047
223	0xbe078417	-0.13233982
224	0xbd1b3a81	-0.03789759
225	0x3c670f2f	0.014102741
226	0xbd9a7a18	-0.07542819
227	0x3e0a88b8	0.13528717
228	0x3d4fe4c3	0.050755274
229	0x3d9fd2fc	0.07803914
230	0x3b25c428	0.002529392
231	0x3c25bdea	0.01011608
232	0xbc64eb29	-0.013972082
233	0x3d3f9bf9	0.046779606
234	0x3da3b5ff	0.079936974
235	0xbc7db8ac	-0.015485924
236	0x3b80d2a6	0.0039313613
237	0x3ca1be7a	0.019744147
238	0x3bb6ecf7	0.0055824476
239	0xbc108ff5	-0.0088233845
240	0xbd14351a	-0.036183454
241	0xbcf339b9	-0.02969061
242	0x3db551ed	0.08853517
243	0x3d4ff911	0.050774638
244	0x3d914276	0.070927545
245	0x3d490642	0.049078234
246	0x3d5ae049	0.05343655
247	0x3e267069	0.16253819
248	0x3e0aaa61	0.13541557
249	0xbd3e220f	-0.0464192
250	0x3cb2199d	0.021740729
251	0x3dbe6a62	0.09297635
252	0x3e0bb132	0.13641813
253	0x3c9f48bc	0.019443862
254	0x3d84379d	0.0645592
255	0x3d0f7c67	0.03503075
